trained_model.pth (torch, 73288 bytes, 8 tensors)

model.0.weight f4 [64, 11]
00000000: 338d 85bc ba06 083e 6719 103e 9482 313e
00000010: f397 9ebe 49f8 ddbd f9fb 54be ca4d 003e
00000020: 4fe1 b2be 7cf8 1ebe 107d 15be ebd4 09be
00000030: a2da a03e 9fae 91be ab96 0b3e 2bcf fd3d
00000040: a7c6 e13d 8dc5 93be 24f6 a13d 1a3d 32be
00000050: c172 d0bb 1054 22bd 3c3e 1a3e 4f3e 753d
00000060: d297 45bb 0c48 833e c7c7 133e 216e eebd
00000070: 5b91 80be 0dd9 e03d b8ec 4a3e c0da 863d
00000080: 47c3 60be 5b10 3cbe 50a9 453e 14c8 233b
00000090: 8341 69be 1c9c 6cbe 74d6 053e da14 36be
000000a0: fa23 11be 513f 29be 73b9 88bd e300 60be
000000b0: 799a 2f3e 71ac 8bbe 7a1d 403e b92d 833e
000000c0: 4b59 85be 2d1e 4cbe 9b0e dfbd b20e 923d
000000d0: 1f6f 393e 0c5c 013e 0bd7 3fbe 7d07 4cbd
000000e0: be27 71be dbf2 863e 97a3 e93d b222 783c
000000f0: ecc9 8b3e a4ca 28be e15b 00be 7cfe f2bd
00000100: b881 a3bd 0248 49be f10a 2a3e 5631 9b3e
00000110: 69db 71be 874e 443e 6b8b 93be 5a93 f5bd
00000120: a691 ddbd 2583 a93c a208 e13c e66a ddbd
00000130: a686 25be a53e f5bd b1a5 80bd 8fba 98bc
00000140: 69a6 85be 7704 72be 7f1e 9cbe 8676 92be
00000150: cac2 4dbd 31fd a1bb 0e74 9cbe c65a 54be
00000160: 4133 cabd 6da4 8f3e b8a4 6f3e ea6e f93d
00000170: 0ff2 8d3e c64b 613d 8f5e 283e d432 803b
00000180: 7677 ab3d d013 e23d ec20 193e ec86 3b3e
00000190: 822f 3c3e dd7f 8b3e 612c 8ebd 1c08 65be
000001a0: 861c 103d 89e5 a73e 616b 2c3a a95a 1c3d
000001b0: 5678 c03d 3418 e2bd f564 a53d 36ed 7abe
000001c0: 4103 4a3e aed1 903e 1448 433e 73b0 0cbe
000001d0: de1b 1f3d cf12 4ebe 9c70 273e 683f 8b3e
000001e0: ede2 7fbe 5a03 123e cdcf 10be b21a 86be
000001f0: 3aa9 553d e756 2c3e 1888 303e 1ad9 8c3e
00000200: 5275 fbbd ee54 a03e 7d2e 77bd cc72 90bd
00000210: 67bd ff3d 7ef4 a4be 62c3 7d3e 5266 293e
00000220: 7c16 90be 1050 1dbe 69fc 843e af75 363d
00000230: be6e a63d 164d 9a3e af4d 8e3e 6ded d93d
00000240: b1b0 3cbd a949 8f3d d115 9cbb 6ad2 95be
00000250: d7aa a1bd 4ece 7abe 273a 7fbe 0669 f63d
00000260: 359b a7bd f4fd 8d3e f662 a4be 88be abbc
00000270: 62ba ee3c affe 043e 7e7d 89be 88a8 543e
00000280: a315 70be 1331 89be ff8a eb3d 5ace 91be
00000290: 30ad 8a3d 673d 81be 4a42 963d 3364 8f3e
000002a0: 6131 49bd 8b0d 02bc e208 653d 7879 44be
000002b0: ab4a 9fbe fdf0 94be 7237 37be 8a7e d93d
000002c0: 901d a2be 9ac0 aa3d 573c 5abe c40b e43c
000002d0: 8351 babd f848 aabc 2a28 a1be 35cc 3a3e
000002e0: 9c21 a7be e8fe 1cbd 06f2 92be 4b5b a5be
000002f0: 34c8 be3d c05b 8d3d a735 86be 9f27 9abd
00000300: 0332 88be 479c 823e 52c7 0abd b0dd 37bd
00000310: a040 7dbe bf72 7e3e 3869 4cbe 0da5 8abe
00000320: b05e 493e b82f 523d a3e9 89be 153d ee3d
00000330: a6b6 6c3d d6c3 80be 014a 413e bd4e 18bd
00000340: 4852 e03c 9422 08be 3f38 d1bd 95bf f5bd
00000350: 99a3 553e 3c06 1b3e 99e3 12be 335b f1bd
00000360: 0227 6e3e 0648 823d a2a8 723d 9aac 553d
00000370: 4a08 2c3e a40b 7bbe 548c ed3d 9ac3 383d
00000380: 0200 14be ae0c 773e 90cd 36be 6d2e 19be
00000390: 4412 76be 1e64 80be 86e6 10be d7ac be3d
000003a0: 81d0 80be 7c7e 553d 1ffd dd3d cd3e eabd
000003b0: e64f 663e 744b 14be a630 e0bb e4a7 943b
000003c0: 546d 5a3e 24d4 5ebe 9eea ef3d 63a3 cc3c
000003d0: 0ef0 14be 4d06 02be f6e7 ecbd 0d29 43bd
000003e0: 957a 923c 59c9 743d b293 443e dca7 05be
000003f0: abd9 9b3d 5036 e53b 4f2d 50be 9b6a 82be
-0.01630268 0.13283816 0.1407219 0.17334968 -0.30975303 -0.10838372 -0.20799245 0.12529674
-0.34937522 -0.15524477 -0.14598489 -0.13460128 0.31416804 -0.28453538 0.13631694 0.1239303
0.11024218 -0.28861657 0.07908276 -0.17406121 -0.006361336 -0.03963095 0.15062803 0.059873875
-0.0030150306 0.25640905 0.14431678 -0.11642099 -0.25110897 0.10978899 0.19816864 0.06584692
-0.21949492 -0.18365614 0.19302869 0.0024991082 -0.22778897 -0.23106426 0.13070089 -0.17781392
-0.1417388 -0.1652806 -0.06675997 -0.21875338 0.1714877 -0.2728 0.18761244 0.2562082
-0.26044688 -0.19933386 -0.10891458 0.07131709 0.18108796 0.1263277 -0.18734376 -0.04981183
-0.23550317 0.2635716 0.114081554 0.015144991 0.27302492 -0.16483551 -0.12535049 -0.11864945
-0.07983726 -0.19656375 0.16605736 0.30311078 -0.23618855 0.19170581 -0.28817305 -0.11990996
-0.10818796 0.020692417 0.027469937 -0.10811405 -0.16164646 -0.11974839 -0.06281603 -0.018643646
-0.26103523 -0.23634516 -0.30492017 -0.2860605 -0.050234593 -0.004943513 -0.30557293 -0.20737752
-0.09873057 0.28055134 0.23402679 0.12179358 0.2772374 0.055003904 0.16442321 0.003912309
0.08372395 0.11038935 0.14953965 0.18313187 0.18377498 0.2724599 -0.06942058 -0.22366375
0.035183452 0.3279231 0.000657728 0.038172398 0.09397952 -0.11039773 0.08075897 -0.24504551
0.19727804 0.28284973 0.19070464 -0.13739185 0.038844936 -0.20124362 0.16351551 0.27196813
-0.24988909 0.14259091 -0.1414177 -0.26192242 0.05216334 0.16830026 0.17239416 0.27509385
-0.122782364 0.31314796 -0.06034707 -0.07053146 0.124872975 -0.32217783 0.24781564 0.16542938
-0.28142154 -0.15362573 0.25973824 0.044545826 0.08126591 0.30136937 0.27793643 0.106409885
-0.046066944 0.069964714 -0.004763343 -0.29262096 -0.07893913 -0.24492761 -0.24924527 0.120317504
-0.081839 0.27732813 -0.3210675 -0.020964876 0.029141609 0.12987779 -0.26853555 0.20767415
-0.23445754 -0.26795253 0.11501121 -0.28477746 0.06771314 -0.2524216 0.073368624 0.28006133
-0.049119357 -0.007937799 0.055916674 -0.19186962 -0.31111655 -0.2909011 -0.17892244 0.106198385
-0.3166318 0.08337517 -0.2131208 0.027837642 -0.090975784 -0.020786747 -0.31475955 0.18241961
-0.3264283 -0.038329035 -0.28700274 -0.32296214 0.093155295 0.069022655 -0.26212808 -0.075270884
-0.26600656 0.25509855 -0.033881493 -0.044889152 -0.24731684 0.2484846 -0.19962013 -0.2707905
0.19665027 0.05131504 -0.26936063 0.11632744 0.057791375 -0.2514941 0.18875886 -0.037184466
0.027382985 -0.1329444 -0.10215806 -0.11999432 0.20863189 0.15139097 -0.14344634 -0.11784973
0.23257068 0.06361394 0.059242852 0.05216656 0.16800037 -0.2451616 0.11599031 0.045108415
-0.14453128 0.2412593 -0.17851853 -0.14959116 -0.24030405 -0.25076383 -0.14150438 0.0931031
-0.25159076 0.052122578 0.10839295 -0.114377595 0.22491416 -0.14481908 -0.006841737 0.0045366157
0.21330768 -0.21760613 0.117146716 0.024980253 -0.14544699 -0.12697716 -0.115676805 -0.04764657
0.017880717 0.059762333 0.19196966 -0.13052315 0.07609876 0.006995 -0.20329784 -0.2547196

model.0.bias f4 [64]
00000000: a24c 503d 69d8 093e f42e 26be 16ca 933e
00000010: 386b a13c 3615 7d3e 354f 57bd 1909 0d3c
00000020: 03e6 363e 4c2c 343e b5a8 853e 4a63 a33e
00000030: daec a93c d8e2 b6bd e1fb 923e cc2a 053d
00000040: ea22 af3d 2654 1cbe 5b4a 283e e17b 0e3e
00000050: a539 743d 38b0 d03d 3ef3 493e 7f85 09bd
00000060: df94 6a3e 1391 2e3d 592d 373e 213b 82be
00000070: 4f0f 9bbd 8522 993e dbe1 653e 2ba6 8e3e
00000080: f7bc 543e 3eed 6abe c87a 99bc 6934 363e
00000090: 5fcd 00be bd9c ce3d 52c3 48bb afb3 7bbe
000000a0: 88d8 8dbd 5fe3 0abd f0cf 2d3e 0874 4f3d
000000b0: 250d 0ebe 64b0 863e 4f5a 87be eec7 673e
000000c0: 773d 293d e972 b5bd efe9 b8bd e0cf 61bd
000000d0: cc42 23be bbc8 233e 0bcd 7d3e ff61 2c3e
000000e0: 7da6 00bd 26b8 903e b6e8 843e e39c 2d3e
000000f0: 8275 173e 5fa1 e53d e412 1ebe 2d11 69be
0.050854333 0.1346146 -0.16228849 0.28865117 0.019704446 0.24715123 -0.052565772 0.008608126
0.1786118 0.17595023 0.26105276 0.3191169 0.020742822 -0.08929986 0.28707793 0.032511517
0.08551581 -0.15266475 0.16434614 0.13914444 0.059625287 0.10189861 0.19721696 -0.033574577
0.22908352 0.042618822 0.17888393 -0.25435737 -0.07571279 0.2990915 0.22449438 0.2786115
0.2077521 -0.22942063 -0.018735304 0.1779343 -0.12578343 0.10088489 -0.0030633998 -0.24580263
-0.06926066 -0.033908244 0.16973853 0.050647765 -0.13872202 0.2630645 -0.26436087 0.22634861
0.041318383 -0.08859808 -0.09028994 -0.055129886 -0.1594345 0.15994541 0.24785249 0.16834258
-0.031408776 0.28265494 0.25958794 0.16954379 0.1479092 0.1121242 -0.15436894 -0.22760458

model.3.weight f4 [128, 64]
00000000: ce00 193e 8e3f 5fbd e78d 9abd cf37 b13d
00000010: fcf8 a93d a67d ee3d 0127 b33d 9f54 9b3d
00000020: e742 aabd bd61 bcbd 0607 e13d 26b2 ab3c
00000030: f588 11be fffb b73d f8dc 4bbd 7737 303d
00000040: 8e79 b73d 8767 0a3d ba23 453c bedd 993d
00000050: b727 0bbe 732a 59bd ae82 d339 11a0 4abc
00000060: a989 5abd 9061 63bd 1785 21bd c34e cbbc
00000070: e520 4e3d eb79 0f3b 571c dabc e0e6 b6bd
00000080: 8da4 693d e2ae 05bd bd64 bebc b161 853d
00000090: f9fe c3bd ebf6 f03c 4891 953d c36f a1bd
000000a0: b3d1 273e 1cb2 a7bd 77fb f7bd 6582 743d
000000b0: 2c7a fcbd a746 8e3c 88b9 a83d 89f2 3dbd
000000c0: 2d76 81bd 84c4 253b 7e2e 6cbd 9314 2c3c
000000d0: c1f9 373b 9249 f93d 8e9b 703d ce55 743d
000000e0: cf03 9d3d 9eac a53c 3b64 db3d 9fff d23d
000000f0: cfa7 5c3d ad61 f7bc be4d 773c 9aec 6dbc
00000100: 2858 e43b bd01 bd3c 6630 ae3c a06d 1a3e
00000110: fc35 70bc 0e03 a83d 7271 cf3d 8b5b d6b9
00000120: 01b6 9cbc b76f b53d d9c3 f03d dc61 a23d
00000130: 59e8 e6bc a3db d53c 608c ddbd 5fdd 7c3d
00000140: 12d0 213e 86fa c03d bffb b7bd c1b6 ed3d
00000150: c2db 75bd b846 e4bd 38f9 adbd cbfd eb3d
00000160: d177 03bb e7f9 36bd c1a0 553c 1f7a a53d
00000170: 6012 a3bd 8fc9 9c3d 5943 e93d c15b 4d3d
00000180: 003a 24bd ee22 0e3d 96bb dfbb 8221 05be
00000190: c0b8 053d 66f9 073e 0c6a 073e 1507 0dbc
000001a0: 5512 133e 2e77 24bd c4a1 0e3d fdd0 4f3c
000001b0: 8b7f 723d 3931 453d 38dd 9e3d 8ccd cc3d
000001c0: d498 e8bd 5417 36bd e73f 91bd 7d7c 38bb
000001d0: 32b9 f13c 1031 cd3d 77b0 9abd e3c0 853d
000001e0: 51ee 31bd 2f2b af3d 7d24 29bd adae 083d
000001f0: 32d6 8ebd f637 913b e6e5 1ebd 2211 103c
00000200: c56f 26bd 7fc4 18be 36ea a2bd 7993 653d
00000210: 28d8 c03d 12f6 64bd 3700 bbbc 656c afbd
00000220: ac90 fa3d c3c0 b13c 307f d93d e9e4 cd3d
00000230: 6ef3 83bd d7b9 273d 8151 a2bd 389e 803d
00000240: 83f3 80bc f0df ab3d b189 60bd 9fab b6bd
00000250: 71a3 033e 2b4f 143e 81fe f13c d18b fc3d
00000260: b28b c93c dbcb e4bc c2fa d9bb 13c9 933d
00000270: 904a 0c3e e677 7dbd 22c3 8cbd 6b9a 963d
00000280: 8237 dcbb 434c b23d 43a1 8dbd a4ea ac3d
00000290: 552d 293b 85ab 183d 6999 993d b515 cf3c
000002a0: 494c d4bd 1bc6 ca3d c633 b73d 2645 9c3d
000002b0: 423f 2dbd 7b3b 9a3d 1326 d13d 2e27 e5bc
000002c0: 3759 013e 7e4a 9a3d e5fe 9c3c 5bfd bb3d
000002d0: 46bc 223a 17d8 ac3c 11f8 c6bc 9285 47bc
000002e0: d2c7 3dbd dfae 2dbd 8074 133e a518 6cbd
000002f0: 774c f03c 3072 82bd 8b10 aabc 859b 98bd
00000300: cd3c c93d 553b cabd e50a a73d ca27 09be
00000310: 9edd b13c b6ec e33d aaeb 153d 275e a03c
00000320: a197 fdbc 3c9b c33d 9295 25bc 115e 33bd
00000330: 8a37 69ba 2260 5b3d ac35 033d dbe6 8b3d
00000340: 90de 9fbd e86a 16be d9b0 093e 38fb b43d
00000350: 2146 77bd 2cc4 903a 728f 8f3d 814a f63d
00000360: ef77 933d 65e4 cd3c 75ac 47bd 5513 d63c
00000370: 6f32 af3d 85fc 293d 16be 6bbd 0bcc a63d
00000380: 7f17 16be 86cf 87bc d059 59bd ca81 363d
00000390: 7933 67bd dc69 a53d d857 3a3b b5d5 163d
000003a0: 479b 04be a635 203c 2de7 003e 25fa 52bc
000003b0: 0d93 94bd 98ff d83d a62b d9bd 3522 8d3c
000003c0: d2e7 d23d 5c6a 9dbb 122b 19bc 983b d73b
000003d0: bc65 76bd 34fe af3d 2bc7 c93d 7865 90ba
000003e0: 1c8d 04bc 2f0a 10bc 081e 31bd 5720 ddbd
000003f0: 69b8 44bb e2be cabd 6646 a9bd a0ae 07bb
0.14941713 -0.05450397 -0.07546597 0.08653223 0.08299443 0.11645059 0.08747674 0.075844996
-0.08313542 -0.091983296 0.10987668 0.020958971 -0.14212401 0.08983611 -0.04977128 0.043021645
0.089587316 0.033790138 0.012032444 0.07512997 -0.13589369 -0.053019 0.0004034242 -0.012367264
-0.05335394 -0.055512965 -0.039433565 -0.02481783 0.05032434 0.0021892737 -0.026624842 -0.08930755
0.057041693 -0.032637484 -0.023241395 0.06512774 -0.095701165 0.029414615 0.07303101 -0.07882645
0.16388588 -0.081882685 -0.1210851 0.059694666 -0.1232799 0.017367674 0.08238512 -0.046373878
-0.06321368 0.0025294134 -0.057661526 0.010502952 0.002807245 0.121722355 0.0587421 0.059652142
0.07666742 0.020223912 0.10712477 0.10302662 0.053870972 -0.030197943 0.015094219 -0.014521742
0.006968517 0.023072118 0.021263313 0.15080881 -0.014661308 0.08203708 0.1012906 -0.00040885466
-0.019129755 0.088591985 0.11756105 0.079288214 -0.028186964 0.026105708 -0.1081779 0.061734553
0.15802029 0.094227836 -0.08983564 0.11607123 -0.06002403 -0.11146301 -0.084948 0.115230165
-0.002006043 -0.04467192 0.013038815 0.080799334 -0.07962489 0.07655632 0.11389799 0.05013633
-0.040094376 0.03470128 -0.006827782 -0.13001063 0.032646894 0.13278732 0.13224047 -0.0086076455
0.14362462 -0.04015272 0.03482224 0.012684104 0.059203666 0.048142646 0.07757038 0.100001425
-0.11357275 -0.04445584 -0.070922665 -0.0028150373 0.029507253 0.100191236 -0.07553189 0.06530931
-0.043440167 0.085531585 -0.041294564 0.03336971 -0.06974448 0.00443172 -0.038793467 0.008793147
-0.040633935 -0.14918707 -0.079548284 0.056048844 0.094162285 -0.055898733 -0.02282725 -0.085655965
0.12234625 0.021698361 0.10619962 0.10053427 -0.06442915 0.040948715 -0.07925702 0.06280178
-0.015741115 0.08392322 -0.054818813 -0.08919453 0.12855317 0.14483325 0.029540302 0.12331355
0.024602745 -0.027929237 -0.006652207 0.07216086 0.13700318 -0.061881922 -0.06873156 0.07353672
-0.0067204842 0.08705952 -0.06915524 0.08443192 0.0025814374 0.03727295 0.07499964 0.025278905
-0.10366113 0.09901067 0.08945422 0.076303765 -0.042296655 0.07530876 0.1021234 -0.027972784
0.12631689 0.075337395 0.019164512 0.09179183 0.00062078645 0.021099133 -0.02428821 -0.012177842
-0.04633314 -0.0424031 0.1439991 -0.05764069 0.029333336 -0.06369436 -0.020759841 -0.07451538
0.0982605 -0.09874598 0.08156375 -0.13394085 0.02171212 0.111291334 0.0366017 0.019576145
-0.030956091 0.09551093 -0.010106461 -0.04379088 -0.00088965206 0.053558476 0.032033607 0.068311416
-0.07806122 -0.14689219 0.13446368 0.08836979 -0.060369615 0.0011044792 0.07009782 0.12025929
0.0720061 0.025133321 -0.048748452 0.026132265 0.08554541 0.041500587 -0.057554327 0.08144387
-0.146574 -0.016578447 -0.053064167 0.04455737 -0.056445573 0.08076832 0.0028433707 0.0368249
-0.12949859 0.009778416 0.12588187 -0.012877022 -0.0725461 0.10595626 -0.106040284 0.017228225
0.102981225 -0.004803939 -0.009348648 0.0065683834 -0.060155615 0.08593407 0.098524414 -0.0011016568
-0.008090284 -0.00879149 -0.04324153 -0.10797184 -0.0030017144 -0.09899689 -0.082653806 -0.002070345

model.3.bias f4 [128]
00000000: 90dd 273d 0dea 87bd cbea 533d dde6 163d
00000010: 6b37 263d 89fd 46bc df7a 56bb 9c73 0b3d
00000020: 0e6c 69bd 0758 ba3c 2d5b e33d 3a5f fe3d
00000030: a478 153d 2743 aabd 4254 d13d 35af 893c
00000040: 48d8 b5bc c3fc 01be f5ef 083e 39df efbc
00000050: f1a2 9b3d df9c 183e 64d7 d43d eb42 adbd
00000060: a9a9 bdbc 1378 0c3e a209 0abe 7366 0d3e
00000070: 5078 9d3c e3c8 9ebd 46f0 6cbd 0841 b33d
00000080: 911d df3d 86d5 093e a54a bf3d 86ef 063e
00000090: 59c9 283d 78f9 963d d2bc de3c 3135 94bc
000000a0: 24a8 973d 7253 8bbc 92e6 11bd c934 52bd
000000b0: 0d34 c1bc 3f79 27bd 271d a8bd 43c9 833d
000000c0: b0df 063e 0753 0f3e 9ebe a63d 7e15 13bd
000000d0: 5449 203d 9f72 93bd 3cde c03d e873 993d
000000e0: 522d d83c 4022 493c 4f00 043e c6f8 1dbd
000000f0: 0b32 e53c a966 893d 264a 943d 050a dc3d
00000100: 20db 49bc c95f 15bd 38dc b63d 39c3 8fbd
00000110: 04d9 a93c 1cf8 9abd 87a8 063e f46a 9b3d
00000120: 3a83 a9bd 2808 aa3d 0674 ee3a f961 b5bc
00000130: 3742 4b3d d739 ad3d 43e8 81bc 9209 cf3d
00000140: 54bf 4fbc 5b0f f1bc 2238 fe3c 943a fd3d
00000150: 458e 0dbc 1146 ba3c 70ae ff3d fdc7 6f3d
00000160: e63f 623d 401b 03bd a1da 10bc d95d d33c
00000170: 5a6f d4bb 1688 843c d6b0 023e 5183 1b3e
00000180: 92aa 88bc da79 643d 226a 41bd 24bd b3bd
00000190: cdab 19bc c72d 9c3c d140 3abc fac7 103e
000001a0: 0b8c d73d 8710 0ebd 2626 bebd 4f2f fb3d
000001b0: 7d01 8e3c 085f bcbd 4d31 a03b a282 e63c
000001c0: b137 b0bd bedb 9ebc 89b2 7d3d 4b6f 68bd
000001d0: 4b26 5ebd 63bd 26bd 184c e43d bcef 93bd
000001e0: 238e 743c 8674 163e a58d cfbd f19e 1c3e
000001f0: 3501 073e ff44 a83d dbfd f13d f228 ec3c
0.040982783 -0.066364385 0.051737588 0.036841262 0.040580194 -0.012145408 -0.0032727045 0.0340458
-0.056987815 0.022747053 0.11101375 0.12420507 0.036492005 -0.083135895 0.10221149 0.016807178
-0.022197857 -0.12694077 0.13372786 -0.029281246 0.07599438 0.14903592 0.10392645 -0.08460029
-0.02315219 0.1371768 -0.13480237 0.13808613 0.019222409 -0.0775316 -0.05784633 0.08752638
0.10894311 0.13460359 0.09340409 0.13177308 0.041207645 0.07371801 0.027189646 -0.01809177
0.07405117 -0.017007563 -0.03562028 -0.05131987 -0.02358439 -0.040887114 -0.08208685 0.06434872
0.13171268 0.13996516 0.08141826 -0.03590917 0.03913243 -0.071995966 0.09417388 0.074928105
0.026388798 0.012276232 0.12890743 -0.038567327 0.027977964 0.06709034 0.07240705 0.107440986
-0.01232031 -0.0364683 0.08928722 -0.07019658 0.020733364 -0.07566854 0.13150226 0.07588759
-0.082769826 0.08302337 0.0018192537 -0.022141444 0.049623694 0.08458298 -0.015857821 0.10109247
-0.0126798935 -0.029426267 0.031032626 0.123646885 -0.008639877 0.022738488 0.12484443 0.058540333
0.05523672 -0.03200841 -0.008841188 0.025801586 -0.0064830007 0.016178172 0.1276277 0.15186812
-0.016682897 0.05578027 -0.047220357 -0.0877631 -0.009379339 0.019064797 -0.0113679925 0.14138785
0.10524758 -0.03468373 -0.0928462 0.12264883 0.017334694 -0.09197813 0.0048886896 0.028138462
-0.08604372 -0.01939189 0.061937843 -0.056746762 -0.054235738 -0.040707957 0.11147326 -0.0722346
0.014926466 0.14692888 -0.101344384 0.15295006 0.13184054 0.08216285 0.11815997 0.028828118

model.6.weight f4 [64, 128]
00000000: bc60 c93b ee22 41bb 94a1 9dbd b766 023d
00000010: f859 6e3d 4c77 383d 4fe5 db3c c1f9 953d
00000020: 6277 433c ceba 92bc e21e 48bd 71ef 72bd
00000030: fa22 cdbb 5769 923d 95c6 063c 2567 3fbd
00000040: 1eb9 123d a20d 6dbd bcd8 a83d 4166 5c3d
00000050: 5d29 3e3c 704c a03c 3377 3ebd b017 023c
00000060: 3f33 5fbd dea5 ba3d be33 b2bd a615 a7bd
00000070: a58f 0ebd 5993 c2bd 35db 9abd 91ac d03c
00000080: 9a5b 0d3d 6268 bf3d c0c6 b9bb 59de 37bc
00000090: 1ba5 9d3c 148e 9abd 1724 f2bc 7831 a13c
000000a0: 7d6a 51bb cef7 683c c1f9 9e3c eca6 763c
000000b0: 4f67 4abd 03fd b0bc 2c12 d4ba 86bf a83c
000000c0: 9dc6 783d 3c94 f93b 0e9f 5bbd 7f2a c13d
000000d0: 5c74 63bd 3b03 14bd 86fb 55bd cd19 b13d
000000e0: 0923 0b3d 092c 7c3b 234b 05bd 851b e33d
000000f0: 9edf dabb 1bf8 87bd ebdc cb3d faa3 27bd
00000100: 9d34 d63b c484 a43d b5fd 62bc 0ea0 e0bc
00000110: 8a87 583c a7dd c2bd 0252 d4bc ffe7 db3d
00000120: 2136 49bd 48db a5bd e5db 8dbd c1d4 0ebd
00000130: 0d12 02bd 991c b7bd 7f1e b23c 506c 8bbb
00000140: c0c3 873d 5106 613d 5462 d93d 757c 11bb
00000150: 77fd 1f3d 5d42 c8bc 7d0d dd3d bb73 843c
00000160: 7464 903c f710 a73c 062b 4ebd 1f44 60bd
00000170: 9842 81bd dffc 22bd 322a b03a 7408 9d3d
00000180: 5cf1 423d bceb 453d 7d38 b6bd 6816 91bc
00000190: f78b 023d 0ad3 c03b c487 43bd 6acd 16bd
000001a0: 8f56 823d 83af e53d c069 b93d 82e4 3ebd
000001b0: 6f83 cbbc a137 5f3b 4df8 2abd 3bbe 87bc
000001c0: ca68 70bc 4f98 c23c 0f96 3dbd 90ad 86bc
000001d0: 171f 863d 9b67 863d e131 ab3d 3bb9 4bbb
000001e0: ad51 b6bc 4354 b0bc 0ec9 c5bb 3f9e 593d
000001f0: bc43 893c c986 90bc 18d2 e43d 578d a63d
00000200: 6b45 d8bd 301d 87bd 8d75 9b3d e88e 4e3d
00000210: 3a6f 97ba 364c e63d f48d ea3b e86c 6b3d
00000220: 472f b3bc 1bd9 963b ead5 45bb 40ee 923b
00000230: 7d4b 0bbd f3bc c83d 6780 f03d bced adbc
00000240: 29eb 253d 56f2 28bd c1b8 75bd b4ef 4b3a
00000250: 5b90 493c cffa 633d f44b 9fbc b905 7abd
00000260: de64 7cbd ed1d 0a3d 8a20 b93d 5ba4 c6bd
00000270: 0786 323d 3860 67bd 30fd 52bd a388 8fbc
00000280: 4319 f33d 0dcc ffbc 1f47 803d a4e6 60bc
00000290: 3b6e f5bc be3e e93c ceb9 13bd 0c26 57bd
000002a0: c1c8 69bd fb12 ddbd 1591 263d 442f 7b3b
000002b0: 3668 1bbd c5b1 a9bd a605 e7bb dee9 943c
000002c0: 533e 013e 5534 553d af5f f73c 12fc 893d
000002d0: 5cf2 26bd 88a7 a73d 6fde 10bd 2dfa 86bc
000002e0: 1872 9ebc 2fda 3d3d debc 3abd 3fc3 c13d
000002f0: a973 5c3d ee0a 8cbc 4325 a53d ddd9 093d
00000300: 672f 4dbd 3045 213d 25c9 c63c 75c0 8abd
00000310: f494 f43d a0dc 283c 0df1 303d 9be6 8f3c
00000320: d158 fa3c ad94 68bb e8e3 00bc 4953 493d
00000330: 641f 3d3d 3928 98bd 56f7 573d 33c4 f43d
00000340: 51b5 e93c 5022 da3c 76d1 7ebc acd4 633d
00000350: f10a 7abd 3f10 b3bd d06e 71bb 3d1a fdbc
00000360: 3b5b c23c f12b 4ebd 0e10 d0bc 3e51 7a3d
00000370: 2530 6c3d d60d a63d c13b 153d 7ca5 77bd
00000380: 8a08 5cbc 66e6 2cbd 64b3 b1bd 1206 86bb
00000390: 957e cd3d ab11 53bc 6a75 2f3d 6e31 383d
000003a0: cd31 4f3d 2d2b 143d f065 8c3d 08c3 85bd
000003b0: cd51 e5bd 6336 823d 1905 e1bc 045a a63d
000003c0: ec0e 0b3d 23ff 78bd 70a5 d13d c27c de3c
000003d0: 3b65 ac3d cd3f fe3d 31df e03d 1ab5 48bb
000003e0: da39 5bbd e8a2 05bd 6869 463d 5de7 bdbc
000003f0: e414 123d b6c6 6cbc 16a2 083d 0db9 bfbc
0.006145565 -0.0029470283 -0.07696834 0.031836238 0.05819127 0.045035645 0.026842741 0.073230274
0.011930319 -0.017911341 -0.048857577 -0.05931038 -0.006260273 0.07148998 0.008226057 -0.046729226
0.035821073 -0.05787433 0.08244464 0.053808454 0.011606541 0.019567698 -0.046500396 0.007940218
-0.05449223 0.09113668 -0.08701275 -0.08158426 -0.03480496 -0.095007606 -0.07561342 0.025472911
0.034511186 0.09346081 -0.005669445 -0.011222445 0.019243767 -0.075466305 -0.029558225 0.019676909
-0.003195434 0.0142192375 0.019406201 0.015054446 -0.04941493 -0.02160502 -0.0016179732 0.020599138
0.060736287 0.007616548 -0.053618483 0.094319336 -0.05553089 -0.036135893 -0.052241825 0.08647499
0.03396896 0.0038478395 -0.03254236 0.11089233 -0.0066794893 -0.06639119 0.09954246 -0.040927865
0.0065370337 0.080331355 -0.013854434 -0.02742007 0.013215909 -0.09514933 -0.02591801 0.10737609
-0.049123887 -0.08098465 -0.06926707 -0.034870867 -0.031755496 -0.089410014 0.021743057 -0.004254855
0.06629133 0.054937664 0.10614458 -0.0022199426 0.039060082 -0.024445707 0.10793588 0.016168466
0.017626025 0.020393832 -0.050334 -0.054752465 -0.0631153 -0.039791938 0.001344031 0.07667628
0.04759346 0.048320517 -0.08897493 -0.01771088 0.031871762 0.005884533 -0.047736898 -0.036816992
0.06364166 0.11215117 0.09053373 -0.04660464 -0.024842946 0.0034060257 -0.041740704 -0.016570201
-0.014673421 0.023754267 -0.046285685 -0.016440183 0.06548899 0.0656273 0.08359123 -0.0031085748
-0.022255743 -0.021524554 -0.0060359305 0.05312943 0.016755931 -0.017642396 0.11172885 0.08132427
-0.105601154 -0.06597364 0.075907804 0.050429255 -0.0011553534 0.11245005 0.0071580354 0.057476908
-0.02187313 0.0046035177 -0.0030187317 0.004483968 -0.034007538 0.09801664 0.11743241 -0.021231525
0.04050747 -0.041246735 -0.05999065 0.0007779554 0.012302483 0.05565911 -0.019445397 -0.061040614
-0.061619632 0.033719946 0.090394095 -0.09699317 0.04358485 -0.056488246 -0.05151099 -0.017521208
0.11870053 -0.031225229 0.06263565 -0.013726864 -0.029959789 0.0284723 -0.03606587 -0.05252652
-0.05707622 -0.10794636 0.040665705 0.0038327733 -0.03794118 -0.0828586 -0.007050234 0.018177923
0.12621431 0.05205186 0.030196993 0.06737532 -0.040758476 0.08186251 -0.03536838 -0.016476715
-0.019341514 0.046350654 -0.045590274 0.09461068 0.05382124 -0.017095055 0.08063748 0.033655036
-0.050094035 0.039372623 0.024265835 -0.067749895 0.11942473 0.010306507 0.043198634 0.017566016
0.03055993 -0.0035489008 -0.007866837 0.049151693 0.046172515 -0.07429547 0.052726112 0.119514845
0.028528841 0.02662769 -0.015552869 0.05562274 -0.06104559 -0.08743333 -0.003683973 -0.0308963
0.023725143 -0.050334875 -0.02539828 0.061112635 0.0576631 0.08108108 0.03643394 -0.060460553
-0.01342977 -0.042211913 -0.08676794 -0.004090079 0.10033909 -0.01288263 0.042836584 0.044969015
0.050584603 0.036173988 0.068553805 -0.0653134 -0.11197243 0.0635803 -0.027468251 0.08122638
0.033949777 -0.060790192 0.10236633 0.027159099 0.08417746 0.12414513 0.109800704 -0.0030625523
-0.05352197 -0.032626063 0.048440367 -0.023181612 0.035664454 -0.014451673 0.033357702 -0.023403669

model.6.bias f4 [64]
00000000: 0fce 1d3d 469b ba3d 5a02 36bd 70bc 2abd
00000010: 62f7 c43d 9a00 ed3d ac95 42bc 040e dcbc
00000020: 50df 32bd 1ab1 e3bc 8e53 423d 9b53 d03d
00000030: edeb e03d 85e3 85bd 0d20 2bbc ee20 6f3d
00000040: 90e3 b83d 0973 cfbc e4b3 293d c10b 853d
00000050: 1a97 b43d d5ba 613d e2eb 9abc 6c31 963c
00000060: e6df d53d b2fa 813d cd4b 8f3c 8082 743d
00000070: 49a0 9f3d c6c9 b9bd d250 b3bd 0538 fa3d
00000080: 3370 8bbc b173 343d bb1d 8f3d d681 14bd
00000090: af89 27bd 4238 413c c866 7c3d f882 0bbd
000000a0: 4de7 23bc 1801 ca3c ea14 183d 2725 d53c
000000b0: 0b29 9bbc 2374 b9bc 572b 17bd 08bf 903d
000000c0: 1ffc 363d 78d5 e9bb a471 943d 1e81 fcbb
000000d0: a66f 683d 19b9 663d 10ee 863d 567a 6e3d
000000e0: 70d0 923d 2fb3 0ebc 91eb c23d 3c0c a73d
000000f0: b7f7 ac3b cd8e 903d 265d 893c 2ea6 d83d
0.03852659 0.09111647 -0.044435836 -0.041683614 0.09617497 0.1157238 -0.011876505 -0.026862152
-0.04367 -0.02779441 0.047442965 0.101721965 0.10982499 -0.065375365 -0.010444653 0.058381014
0.09027779 -0.025323408 0.041431323 0.064963825 0.08817883 0.055109818 -0.018911306 0.018334113
0.10443096 0.063466445 0.0174922 0.059694767 0.07794244 -0.09071688 -0.087556496 0.12217716
-0.017021274 0.044055644 0.069880925 -0.036256634 -0.04090279 0.011793198 0.061621457 -0.03406045
-0.010003877 0.024658725 0.03712932 0.026018692 -0.01894047 -0.022638386 -0.036906566 0.07067686
0.044674035 -0.007136043 0.07248238 -0.0077058217 0.0567471 0.056328867 0.065883756 0.058222137
0.071686625 -0.008709713 0.09517587 0.081566304 0.0052785533 0.07058487 0.01676805 0.10578571

model.9.weight f4 [2, 64]
00000000: 68fa f73d 9068 6d3d bb5b f13d b1ad d4bd
00000010: fbc6 b0bd 4fd4 703c 740b 07be 63b6 803d
00000020: e37d f83d adae fa3d f457 b73d f016 39bc
00000030: c73a ed3d aabd 0a3e 442f 5ebd 14a2 833d
00000040: ba55 0d3d 2444 0b3e 3cf4 31bd c387 db3d
00000050: ca0a 633d d403 ccbc ab82 10be bdfb 3bbc
00000060: 45d0 d93c 6736 16be 1c1d 183e 7886 28bd
00000070: 7c3a b9bd 1fd3 ae3d 07aa bf3d 68f3 41bc
00000080: 9952 f8bd 90b0 d0bd d8de 123e faa9 f2bd
00000090: ff6a 8d3d 516f 5ebd 9bd8 86bc c151 d33d
000000a0: 361d 08be 2ee1 05be 807b ff3d a25f e13c
000000b0: 9156 44bc ea20 afbc 505e e73c 3458 0fbe
000000c0: 8a2c d4b9 dbbf cb3d 60a9 ca3d 71a7 93bb
000000d0: c129 053e 323e 8f3d eb36 2e3d c575 86bd
000000e0: 4b59 98bc 161c 22be 4d2c 4fbc adca d43d
000000f0: 8bf9 c13b 41f1 d53d 9f67 ff3d a6f4 213e
00000100: f283 49bd ef01 6fb9 1fbe c3bd fb31 60bc
00000110: 5727 f73d 5e98 aabd e0e2 893d 1128 05be
00000120: 9b75 adbc 9af2 90bd f474 9a3c 2639 153e
00000130: 48de 86bd 49f7 10bd 59c0 b23c 7912 e13d
00000140: a175 f73d 3a8e d6bd c83b 30bc 79e7 febd
00000150: d595 16bd 127c cb3d b63e 22bd 469b 603d
00000160: 296e 97bd 109c 173e 49d3 643d 2d7f 8e3d
00000170: 2699 8c3d 87e8 f6bd 511f 55bd 9977 bcbd
00000180: 007b 313d 1386 d73d 32a5 d83c 26f5 643d
00000190: 7cc8 3cbc e9b6 313d f9d0 183e ac4a 053c
000001a0: 2df3 9a3d 7b2a 6bbc e657 783d f834 f83d
000001b0: 2c87 133e f33b e13d 5cc3 adbd 4503 a73d
000001c0: efe6 4abd ae1a 383d 12c3 18bd 9841 5abd
000001d0: cd35 e4bc 6045 54bd 1692 17be e871 083e
000001e0: 8895 ed3d 1ac3 e43d 7f08 d03d 9bbd 47bd
000001f0: 0f45 b73d 1afd 0fbc cf07 0cbe 6714 963c
0.12108308 0.057961047 0.11785074 -0.103846915 -0.086317025 0.014699056 -0.13187963 0.062847875
0.12133386 0.12240348 0.089523226 -0.011296973 0.115834765 0.13548914 -0.054244295 0.06427398
0.034505583 0.13600212 -0.04344581 0.10719254 0.05543021 -0.02490417 -0.14112346 -0.011473593
0.026588568 -0.1466919 0.14854854 -0.041143864 -0.09044358 0.08536362 0.09358602 -0.011837818
-0.12125129 -0.101899266 0.1434282 -0.11848827 0.069051735 -0.05430538 -0.016460707 0.10318328
-0.13292393 -0.1307418 0.12474728 0.027511422 -0.01198353 -0.021378 0.028243214 -0.1399849
-0.00040468975 0.09948703 0.09895587 -0.0045060446 0.13004209 0.06994285 0.042532843 -0.065654315
-0.018597266 -0.15831026 -0.0126448395 0.1039022 0.0059196404 0.10446406 0.12470936 0.15815982
-0.0491981 -0.00022793536 -0.09557747 -0.013683791 0.1206805 -0.08329843 0.06732726 -0.13003565
-0.021174243 -0.070775226 0.018854596 0.14572582 -0.065853655 -0.03539208 0.021820234 0.109898515
0.12082983 -0.10476346 -0.01075644 -0.12446494 -0.036763985 0.09935774 -0.039610587 0.05483558
-0.07394058 0.14805627 0.05586556 0.069578506 0.06865148 -0.1205607 -0.05203182 -0.09202499
0.043330193 0.105236195 0.026445959 0.055897854 -0.011522409 0.043387327 0.14923467 0.008135479
0.07565913 -0.01435339 0.0606307 0.12119478 0.14407033 0.109977625 -0.084845275 0.081549205
-0.04953664 0.04494732 -0.03729541 -0.05328521 -0.027857685 -0.051823974 -0.14801821 0.13324702
0.116007864 0.11170025 0.101578705 -0.048764806 0.08948719 -0.008788371 -0.13674854 0.018320275

model.9.bias f4 [2]
00000000: d8bf a3bd 5b3b 4a3d
-0.07995576 0.049373012
